cleanrl/tictactoe_final.pt (torch, 296352 bytes, 7 tensors)

encoder.1.weight f4 [256, 18]
0	0x3dde1c75	0.108452715
1	0xbdc68350	-0.096930146
2	0xbcd6bf65	-0.02621431
3	0x3db4d202	0.08829118
4	0xbe7f028e	-0.24903318
5	0x3e2f0b51	0.1709416
6	0xbd805973	-0.06267061
7	0x3e03e769	0.12881245
8	0x3d9c9cab	0.076470695
9	0xbd236b35	-0.039897162
10	0x3dbc2684	0.09187034
11	0x3c7a5f02	0.015281441
12	0x3e0a63d7	0.13514648
13	0xbdc8f992	-0.09813227
14	0xbce8be87	-0.028411163
15	0xbc875291	-0.016518863
16	0x3d09b5db	0.033620697
17	0x3bcfec26	0.0063452898
18	0x3e68b5b2	0.22725561
19	0x3d42e6da	0.04758344
20	0xbdbd8aaa	-0.09254964
21	0xbdf26bd5	-0.118369736
22	0xbc849110	-0.016182452
23	0xbdc5dd07	-0.09661298
24	0xbdbb7771	-0.09153641
25	0x3c058cbd	0.00815123
26	0x3e0eb703	0.13937001
27	0x3df4adf0	0.119472384
28	0xbe79c29f	-0.24390648
29	0x3e0dda87	0.13852893
30	0x3d1b7a5a	0.03795848
31	0x3e76127c	0.24030489
32	0x3e44f197	0.19232784
33	0xbe6c6951	-0.2308705
34	0xbe7f0a5a	-0.24906293
35	0xbdde5d66	-0.10857658
36	0x3e4876cf	0.19576572
37	0xbd40750b	-0.04698662
38	0x3de1827f	0.11011218
39	0xbdfa7391	-0.12229074
40	0x3e662a3f	0.22477053
41	0xbe05be7f	-0.1306095
42	0x3e3f40a3	0.18677
43	0xbcc28e63	-0.023749536
44	0xbe18337c	-0.1486339
45	0x3de80f1c	0.11331007
46	0xbe24f03c	-0.16107267
47	0x3d84b39c	0.0647957
48	0xbe045fe8	-0.1292721
49	0xbd11215e	-0.035432212
50	0xbe6f3a1a	-0.23362008
51	0xbdebcbd3	-0.11513486
52	0x3e120667	0.14260255
53	0xbdafde1c	-0.08587286
54	0x3e80a134	0.25122988
55	0x3e3340a1	0.17505123
56	0x3bc4207a	0.005985317
57	0xbe247005	-0.16058357
58	0x3e01b251	0.12665679
59	0x3da97018	0.08273333
60	0xbe41d1d8	-0.18927705
61	0x3e2325f7	0.15932451
62	0x3e4ac50a	0.19801727
63	0x3e38906a	0.1802384
64	0xbdfe67de	-0.12422155
65	0xbd237da8	-0.039914757
66	0x3bcbdd6c	0.006221464
67	0x3d2b72f5	0.04185768
68	0xbe49394c	-0.19650763
69	0xbe329405	-0.17439277
70	0x3de918ea	0.11381705
71	0xbd85ba97	-0.0652973
72	0x3e12276b	0.1427285
73	0xbd0df29a	-0.03465519
74	0x3db86dca	0.090053156
75	0x3d2636e6	0.0405797
76	0x3db154d1	0.086587556
77	0x3dfecf77	0.124419145
78	0xbe886ba6	-0.2664463
79	0x3dff07ae	0.12452637
80	0xbe1fcbdf	-0.15605114
81	0xbe42b5e3	-0.19014697
82	0x3d39b4f9	0.045338605
83	0xbd2ae729	-0.041724358
84	0x3e1af909	0.15134062
85	0xbe00c8b3	-0.1257656
86	0xbe54b35c	-0.20771545
87	0x3e1912f4	0.14948636
88	0xbd96fc95	-0.07372395
89	0x3e1a9ec7	0.15099631
90	0x3daa88eb	0.08326896
91	0xbe3bfeef	-0.18358968
92	0x3ca8fb70	0.020627707
93	0x3dab564a	0.08366068
94	0xbe10b5f0	-0.14131904
95	0xbdc037d7	-0.093856506
96	0x3da0ebf8	0.078575075
97	0x3d4a1071	0.049332086
98	0xbdce1434	-0.10062447
99	0xbd8b04d4	-0.0678803
100	0x3e633c5c	0.22190994
101	0xbd3c3dcd	-0.045957375
102	0x3e050fcb	0.12994306
103	0x3dde1cc3	0.108453296
104	0xbdf15b0c	-0.11784944
105	0xbe582585	-0.21108063
106	0x3e640374	0.22266942
107	0x3c9696a9	0.018382387
108	0x3e253020	0.1613164
109	0x3d4c7904	0.049920097
110	0x3c9c5468	0.019083217
111	0x3e6b6a2a	0.22989717
112	0x3e59f38f	0.21284316
113	0xbe1203fb	-0.14259331
114	0x3d23130b	0.039813083
115	0x3e2b586d	0.1673295
116	0x3e36b8e7	0.17843972
117	0x3e139f92	0.1441634
118	0xbe4dfd89	-0.20116247
119	0xbe471ba8	-0.19444144
120	0xbe332a22	-0.17496541
121	0x3d169e62	0.03677214
122	0x3e90d203	0.28285226
123	0xbe2b5fc5	-0.16735752
124	0x3df2344d	0.11826382
125	0xbe093c4a	-0.13401905
126	0xbe795e33	-0.2435234
127	0xbcb0bfde	-0.021575864
128	0x3de9549e	0.113930926
129	0x3e5b178b	0.213957
130	0xbe2cc35f	-0.16871403
131	0x3d9c78b4	0.0764021
132	0x3e718abc	0.23588079
133	0x3e24b4b4	0.16084558
134	0x3e18d9c5	0.14926822
135	0x3e2fca66	0.17167053
136	0x3e3ef2f9	0.18647374
137	0x3d69c155	0.05706914
138	0xbdff1057	-0.124542885
139	0xbe5688a2	-0.20950559
140	0xbe0079be	-0.12546441
141	0xbc8fb3de	-0.017541822
142	0xbe0cd4e9	-0.13753094
143	0x3dc3907b	0.09549042
144	0x3da90cad	0.08254371
145	0xbd9056bc	-0.07047793
146	0x3d93777a	0.07200523
147	0x3dcaaacb	0.098958574
148	0x3e15f9c9	0.14646067
149	0x3e341c30	0.17588878
150	0xbd9ec0c7	-0.07751613
151	0x3e61bf47	0.22045623
152	0xbcc91c35	-0.024549583
153	0xbc0d0405	-0.008606915
154	0xbe6c07be	-0.23049828
155	0xbe289a00	-0.16464996
156	0xbe10cd3c	-0.1414079
157	0xbdbe5034	-0.09292641
158	0x3e4c4c06	0.19950876
159	0xbda7bf75	-0.081908144
160	0xbe465697	-0.19368969
161	0x3dd2b513	0.102884434
162	0x3dbcd0f2	0.09219541
163	0x3e0214d0	0.12703252
164	0xbe0d47e1	-0.13796951
165	0x3d80a198	0.062808216
166	0xbd831d74	-0.06402102
167	0xbd314b36	-0.043284617
168	0xbe4234ba	-0.18965426
169	0xbde6f161	-0.11276508
170	0xbde06437	-0.109566145
171	0x3dd1bfdf	0.10241675
172	0x3d8b4135	0.06799547
173	0x3d597c95	0.053097326
174	0x3e5ec68d	0.21755429
175	0x3e72b21f	0.2370076
176	0x3e396a40	0.18106937
177	0xbc0ceac6	-0.008600896
178	0xbe3395bc	-0.17537588
179	0x3e3b9df0	0.18321967
180	0xbd5a90b0	-0.05336064
181	0xbd00a5dc	-0.031408176
182	0xbe61f955	-0.22067769
183	0xbd3fe6e4	-0.046851054
184	0xbe2788af	-0.16360734
185	0x3e76d128	0.24103224
186	0xbe3e2b81	-0.18571283
187	0xbe35cdcc	-0.17754287
188	0xbc0b1800	-0.008489609
189	0xbdee6888	-0.116410315
190	0x3deac1f4	0.11462775
191	0xbdc64ff5	-0.09683219
192	0xbdb7aaa0	-0.08968091
193	0x3ca1b26d	0.0197384
194	0x3e3443d5	0.17604001
195	0xbe2c0579	-0.16798963
196	0x3db3d26b	0.087803684
197	0x3e2d9f4e	0.16955301
198	0x3e7a1fa0	0.24426126
199	0xbe316a58	-0.17325723
200	0x3dbbb80b	0.09165963
201	0xbe476d34	-0.19475251
202	0x3e6c164b	0.23055379
203	0xbdfb68f0	-0.122758746
204	0x3e0ee836	0.13955769
205	0x3b261151	0.0025339911
206	0xbd5c4049	-0.053772245
207	0xbbe408b5	-0.006959046
208	0x3d879389	0.06619937
209	0x3dfad3ff	0.12247466
210	0x3c7854e7	0.015156961
211	0x3d8aaf91	0.06771768
212	0xbe78e923	-0.24307685
213	0x3e38560b	0.18001573
214	0x3e43df01	0.19128038
215	0x3e44f293	0.1923316
216	0x3e1c0bb1	0.15238835
217	0xbe30b8ac	-0.17257947
218	0xbdc990c6	-0.098420665
219	0x3e6796f4	0.22616178
220	0xbe322101	-0.17395402
221	0x3e617d28	0.220204
222	0xbe346409	-0.17616285
223	0xbe4026b4	-0.18764764
224	0x3ddd0d0b	0.107935034
225	0xbe329270	-0.17438674
226	0xbda79b31	-0.08183897
227	0x3e220071	0.15820481
228	0x3e20636b	0.15662925
229	0x3e73319f	0.23749398
230	0xbc270674	-0.01019441
231	0xbe55525c	-0.20832199
232	0x3e5f8630	0.21828532
233	0xbd673c91	-0.056454245
234	0xbdfe8814	-0.124282986
235	0x3ddc8c9e	0.10769008
236	0xbe29ee3f	-0.1659479
237	0x3e3ecbf7	0.18632494
238	0x3e116e0c	0.14202136
239	0xbe4d31f0	-0.20038581
240	0xbe214187	-0.15747653
241	0xbcf49e76	-0.029860716
242	0x3dbbc891	0.091691144
243	0xba84c7d6	-0.0010130357
244	0xbe130150	-0.1435597
245	0x3abf60b2	0.0014600961
246	0xbe857b5c	-0.26070678
247	0xbe2a0bff	-0.16606139
248	0xbe26a4eb	-0.16273849
249	0x3e5179df	0.20456646
250	0x3e77adca	0.24187389
251	0xbdc09111	-0.09402669
252	0xbd358577	-0.044316735
253	0x3e20e4f6	0.15712342
254	0x3d25a486	0.040440105
255	0xbe0a8f0a	-0.13531128

encoder.1.bias f4 [256]
0	0x3dddb811	0.108261235
1	0x3e096509	0.13417448
2	0x3e7bc927	0.24588452
3	0x3d7f8b8a	0.062388934
4	0x3e2c95f6	0.1685408
5	0x3e184f92	0.14874104
6	0xbe3e78c3	-0.18600754
7	0xbe3d3744	-0.18478113
8	0x3e390132	0.18066862
9	0x3e6a2717	0.22866474
10	0xbdda6713	-0.10664191
11	0x3dd75c56	0.105156586
12	0x3e476df4	0.19475538
13	0xbe36f0c9	-0.1786529
14	0xbde72a96	-0.112874195
15	0x3e5b29d5	0.21402676
16	0xbd186fcc	-0.037215993
17	0x3d8b92a4	0.06815079
18	0x3d93921c	0.072056025
19	0x3d257bab	0.040401142
20	0x3e78433a	0.24244395
21	0x3e578ecc	0.21050566
22	0xbe68ab63	-0.22721629
23	0x3d8b2c30	0.067955375
24	0x3db48bfd	0.08815763
25	0x3c253d48	0.010085411
26	0xbdc88490	-0.09790909
27	0x3dbf215d	0.093325354
28	0xbd9347dc	-0.071914405
29	0x3dee2cd5	0.11629645
30	0x3d877e5d	0.06615899
31	0x3e1df587	0.15425692
32	0xbc1abf35	-0.009445001
33	0xbdab7fcb	-0.08373984
34	0x3e44cd87	0.19219027
35	0x3e222f68	0.15838397
36	0x3ddc4ae5	0.107564725
37	0xbe693e71	-0.22777726
38	0x3dd2a1e9	0.10284788
39	0xbc0e271e	-0.008676318
40	0xbe7b6c95	-0.2455314
41	0xbe7657de	-0.24056956
42	0x3d7f7e14	0.062376097
43	0xbc26e117	-0.010185502
44	0x3e43fda4	0.19139725
45	0x3cc55179	0.0240867
46	0xbe469fb8	-0.19396865
47	0xbd2ec569	-0.042668734
48	0x3e08f88f	0.13376068
49	0x3d6e24e5	0.058140654
50	0x3e6773fb	0.22602837
51	0x3e38c03b	0.1804208
52	0x3d428c42	0.04749704
53	0x3e6a2219	0.2286457
54	0xbe0cd8bb	-0.13754551
55	0x3c10fcfb	0.008849378
56	0xbdb76fc9	-0.08956868
57	0xbd4ea6d1	-0.050452057
58	0x3c529562	0.012852998
59	0x3e28ac15	0.16471894
60	0xbd0f2b6d	-0.034953523
61	0x3ddf8793	0.109145306
62	0x3e48d1a9	0.19611229
63	0x3cfbf96e	0.030758586
64	0xbbd7e5d4	-0.006588677
65	0xbe3447d3	-0.17605524
66	0xbe1c2ed5	-0.1525224
67	0xbbe8781c	-0.0070943963
68	0x3d16d154	0.036820725
69	0xbd0a992b	-0.03383748
70	0xbe57eaba	-0.21085635
71	0xbe1e2b6d	-0.15446253
72	0x3e18a561	0.14906837
73	0x3c1f41bc	0.009720262
74	0xbe733b0e	-0.23752996
75	0xbe54d79a	-0.2078537
76	0xbdf2e8da	-0.11860819
77	0xbe5efa25	-0.2177511
78	0x3e33a095	0.17541726
79	0x3e2fe82d	0.17178412
80	0xbcf3a8da	-0.0297436
81	0x3e3554c3	0.17708115
82	0x3d18270f	0.037146624
83	0xbd8f95ec	-0.07011017
84	0xbca1f103	-0.019768244
85	0xbd9ba61f	-0.076000445
86	0xbdb0c440	-0.08631182
87	0x3e1bd326	0.15217265
88	0xbd0eac63	-0.03483237
89	0x3dae2b85	0.085043944
90	0x3ddbc6a2	0.107312456
91	0x3e18d15a	0.14923611
92	0x3c9c7b21	0.019101681
93	0x3cdb5cdb	0.026777675
94	0x3e1cb8f2	0.15304926
95	0xbe1f04b3	-0.15529136
96	0xbb9d92c9	-0.004808758
97	0x3da4052b	0.08008798
98	0xbd4825d4	-0.0488642
99	0xbd3024e7	-0.043003943
100	0x3de3a32b	0.11115106
101	0x3da1558e	0.078776464
102	0xbe0c4a39	-0.13700189
103	0xbd5c0e30	-0.053724468
104	0xbe022ba6	-0.12711963
105	0x3e0780e2	0.13232759
106	0x3cffa00f	0.031204252
107	0x3b86e369	0.004116465
108	0x3e13f46c	0.14448708
109	0xbcc76da5	-0.024344275
110	0x3e14808c	0.14502162
111	0xbd4ccca7	-0.04999986
112	0x3e2afefd	0.16698833
113	0x3e06f8a9	0.13180794
114	0x3e69b4a2	0.22822812
115	0xbd25e55b	-0.040501934
116	0x3d0523e4	0.03250493
117	0xbe6347ad	-0.22195311
118	0x3e6516c3	0.22371964
119	0x3a48de6b	0.00076625374
120	0x3d7dc558	0.06195578
121	0xbe653a41	-0.22385503
122	0xbd65857a	-0.056035496
123	0x3e4e2800	0.20132446
124	0xbdf6c26a	-0.120488
125	0x3d94ca13	0.07265105
126	0x3df15840	0.117844105
127	0x3e02d50e	0.12776586
128	0x3e6e1042	0.2324839
129	0xbdd3f460	-0.10349345
130	0xbe3447e0	-0.17605543
131	0x3db08581	0.08619214
132	0xbd287eae	-0.041136436
133	0xbe2e8811	-0.17044093
134	0xbe65b274	-0.22431356
135	0x3e5364c2	0.20643905
136	0xbe10c64e	-0.14138147
137	0x3e653b76	0.22385964
138	0xbe2f2e43	-0.17107491
139	0x3e0a4bf5	0.13505538
140	0xbd99d781	-0.07511807
141	0x3e3577c2	0.17721465
142	0x3e817c82	0.25290304
143	0x3e448dba	0.1919469
144	0xbe0b8bd2	-0.13627556
145	0xbdc9c85c	-0.09852669
146	0xbe1d7757	-0.15377556
147	0xbcf2ef50	-0.029655129
148	0x3d70a782	0.058753498
149	0x3e37ff1d	0.17968412
150	0xbdfc66a3	-0.12324264
151	0x3df68f47	0.12039047
152	0xbd9b8fed	-0.07595811
153	0x3d0b3a4d	0.033991147
154	0xbe3620a2	-0.17785886
155	0x3d5afdd8	0.05346474
156	0x3d4a9511	0.049458567
157	0x3e259ac1	0.16172315
158	0x3e28c0b7	0.16479765
159	0x3e484618	0.19557989
160	0x3e1230f4	0.14276487
161	0xbc625427	-0.013814009
162	0x3e1217bb	0.14266865
163	0x3e405d73	0.18785648
164	0x3e2771a4	0.16351944
165	0x3e337e0c	0.17528552
166	0xbda8c8d3	-0.08241429
167	0x3c38b518	0.011273645
168	0xbde89af4	-0.1135768
169	0x3dfea091	0.12432969
170	0xbdbc014c	-0.09179935
171	0xbe743113	-0.23846845
172	0xbdc8f842	-0.098129764
173	0xbe3bc949	-0.18338503
174	0x3d658e01	0.05604363
175	0x3e162185	0.14661224
176	0xbbf87568	-0.0075823553
177	0xbdf47022	-0.1193545
178	0xbdc39380	-0.09549618
179	0xbe4ca946	-0.19986448
180	0x3d99dcc4	0.07512811
181	0x3e08852b	0.1333205
182	0xbe2fd44f	-0.17170833
183	0x3e216628	0.15761626
184	0x3da2f692	0.07957186
185	0xbe4db2ca	-0.20087734
186	0x3e28ff0e	0.16503546
187	0xbba70fe1	-0.0050983285
188	0xbded7400	-0.11594391
189	0x3e089dd3	0.13341455
190	0xbe125c53	-0.14293031
191	0x3cded5ff	0.02720165
192	0x3e5cd545	0.21565731
193	0x3e0fdacc	0.14048308
194	0x3e15f1eb	0.14643066
195	0xbe11c22b	-0.14234225
196	0xbdf60309	-0.12012298
197	0x3d986edc	0.0744302
198	0xbbd59ea4	-0.0065191556
199	0x3e3737c6	0.1789237
200	0x3e693cb3	0.22777061
201	0x3e37a369	0.1793343
202	0x3da158dd	0.078782775
203	0xbe142eac	-0.14470929
204	0x3d3762ac	0.044771835
205	0x3c0fe2d7	0.00878211
206	0xbe1f6793	-0.15566854
207	0xbd062372	-0.032748647
208	0x3c2e2401	0.010628701
209	0xbe27a16d	-0.16370173
210	0x3d021708	0.031760246
211	0xbe420901	-0.18948747
212	0x3e0c2dcd	0.13689347
213	0xbdfef84c	-0.124497026
214	0x3d8ffa2e	0.0703014
215	0xbca4756d	-0.020075524
216	0xbe217b5b	-0.15769713
217	0x3d2be584	0.04196693
218	0xbe463420	-0.19355822
219	0x3e1eeab8	0.15519226
220	0x3b2dd0d4	0.0026522176
221	0x3d5edfb1	0.054412547
222	0x3e1b88dc	0.15188926
223	0x3e30384b	0.17208974
224	0x3e2e5162	0.17023233
225	0x3e01d5fd	0.12679286
226	0xbc442c19	-0.011973404
227	0x3bfc6bac	0.007703265
228	0xbe647afc	-0.2231254
229	0x3da20f47	0.0791307
230	0x3d31d0f7	0.043412175
231	0x3e23b7d9	0.15988101
232	0x3e3dd8c5	0.18539722
233	0xbd37dcda	-0.044888355
234	0xbdcdc19f	-0.10046696
235	0x3e1dd21a	0.15412179
236	0x3daea09f	0.0852673
237	0xbe0cf5ef	-0.13765691
238	0xbe380fe1	-0.17974807
239	0xbe6b30f9	-0.229679
240	0x3e04afc3	0.12957673
241	0x3da402f3	0.08008375
242	0x3d282afc	0.041056618
243	0x3e01f8f2	0.12692621
244	0xbe22b90b	-0.15890901
245	0x3e779d0d	0.24181004
246	0x3dd123db	0.10211917
247	0x3dc8504e	0.09780942
248	0xbd8a920d	-0.06766138
249	0xbe5ef0bd	-0.21771522
250	0x3ce2de28	0.027693823
251	0x3c63da9c	0.013907101
252	0x3cc7f453	0.024408495
253	0x3e08a8c7	0.13345633
254	0xbde7bfc0	-0.1131587
255	0x3e679c7e	0.22618291

encoder.3.weight f4 [256, 256]
0	0xb981b68b	-0.00024740802
1	0xbd92f4db	-0.07175609
2	0xbd186b5d	-0.037211765
3	0x3c7b0dd9	0.015323126
4	0x3d078a86	0.03309109
5	0xbd15e5da	-0.036596157
6	0xbd08ec05	-0.03342821
7	0x3c62b623	0.01383737
8	0xbda0d1ee	-0.07852541
9	0xbce16cec	-0.027517758
10	0xbd2358e7	-0.039879706
11	0x3d37d263	0.044878375
12	0xbd37faba	-0.044916846
13	0x3b957254	0.004560748
14	0x3dadfeb3	0.08495846
15	0xbca9661e	-0.020678576
16	0x3d5c0cde	0.05372321
17	0xbc083176	-0.008312574
18	0xbb10438e	-0.0022012922
19	0x3d09ee81	0.03367472
20	0xbd5dbfe5	-0.054138083
21	0x3d04934c	0.032367036
22	0x3bfd085c	0.007721944
23	0xbd7656b2	-0.060141273
24	0x3cbbeddb	0.022940567
25	0xbcfdc60d	-0.030978227
26	0xbd09839b	-0.033572774
27	0x3cd596e7	0.026072932
28	0x3c3444a4	0.011002693
29	0xbd60932c	-0.054827854
30	0x3ca90173	0.020630574
31	0x3b89e456	0.004208128
32	0xbcbe9c13	-0.023267781
33	0x3d9100e5	0.07080249
34	0xb830b2c6	-4.2128166e-05
35	0x3be87a80	0.0070946813
36	0xbcadf27e	-0.021233793
37	0x3c8cf987	0.017208828
38	0x3c1c05e2	0.009522887
39	0x3d7a14af	0.06105488
40	0xbd347bb0	-0.04406327
41	0xbcc68cfd	-0.02423715
42	0x3ce05973	0.027386403
43	0xbd22be7b	-0.039732438
44	0xbd4eda38	-0.05050108
45	0x3cd72159	0.026261019
46	0x3d3c529b	0.045977216
47	0x3d76bef1	0.06024069
48	0x3cb26d92	0.021780763
49	0xbc811a2f	-0.015759556
50	0xbd411de0	-0.04714763
51	0xbd136d92	-0.035993166
52	0x3caea157	0.021317167
53	0xbc85e21e	-0.016343173
54	0x3d6f9559	0.05849204
55	0x3d875f45	0.06609968
56	0xbc21508b	-0.009845863
57	0x3d71e9b5	0.05906077
58	0x3ca3e832	0.02000818
59	0x3d1d78aa	0.038445152
60	0x3c643b67	0.013930178
61	0xbc5ecbec	-0.013598423
62	0x3b902e49	0.004400049
63	0xbba610b6	-0.00506791
64	0x3d2b7535	0.041859824
65	0x3cfcf467	0.030878259
66	0xbcb6d828	-0.022319868
67	0xbd4fdcdb	-0.050747734
68	0x3bf5ae4d	0.007497585
69	0xbc9ad431	-0.018900009
70	0x3cbd3eee	0.023101296
71	0x3c95b5b7	0.018275125
72	0xbd5925ce	-0.05301457
73	0xbd73aa86	-0.059488796
74	0xbc1d9e75	-0.009620299
75	0xbd95322a	-0.07284959
76	0x3cc213bb	0.023691049
77	0x3d2addbb	0.041715365
78	0x3d824fa0	0.063628435
79	0xbb3cc569	-0.002880419
80	0xbd02dd30	-0.031949222
81	0x3ca8e613	0.02061752
82	0xbd5f4198	-0.054505914
83	0x3d069ef5	0.032866437
84	0xbb54a3b1	-0.00324462
85	0xbd008da2	-0.03138507
86	0x3c87fa7d	0.016598934
87	0x3ca39a0b	0.019970914
88	0xbb0091f3	-0.0019618243
89	0x3d549380	0.05189848
90	0xbd627b57	-0.055293407
91	0xbc9e0bce	-0.019292738
92	0xbd3b115a	-0.045670845
93	0xbd888f5d	-0.066679694
94	0xbdca136e	-0.09866987
95	0xbb6337aa	-0.003467063
96	0x3c8bb951	0.01705614
97	0xbd120dbd	-0.035657633
98	0x3da5cc3c	0.08095595
99	0x3cb7bc5c	0.022428684
100	0x3c4f2a7a	0.012644405
101	0x3d128b25	0.03577723
102	0x3c5f49ab	0.013628404
103	0xbd2532e9	-0.040331755
104	0xbb3cd67a	-0.0028814361
105	0xbd0693a6	-0.032855652
106	0xbd40163f	-0.046896216
107	0x3cc422be	0.023942348
108	0xbd8970f3	-0.067109965
109	0x3c4720bd	0.0121538015
110	0xbca166da	-0.019702364
111	0x3d430fac	0.047622368
112	0xbcc549f6	-0.024083119
113	0xbda78a17	-0.081806354
114	0xbd87f3fd	-0.06638334
115	0xbd54f3c3	-0.05199028
116	0xbbcd52b1	-0.006265961
117	0x3c27aaf2	0.010233628
118	0xbd06b7e7	-0.032890227
119	0xbceea4d8	-0.029131338
120	0xbd40b3a0	-0.047046304
121	0xbcee06d2	-0.029055987
122	0x3bc4c3ae	0.006004772
123	0xbd3b14b2	-0.045674033
124	0x3ce11da1	0.027479948
125	0x3cdcb84f	0.026943354
126	0xbcdd0b9d	-0.026983077
127	0x3cc83448	0.024438992
128	0xbcf03308	-0.029321209
129	0xbca62f19	-0.02028613
130	0x38e52e04	0.00010928142
131	0xbd0d194e	-0.03444796
132	0x3d7b73db	0.061389785
133	0xba73a4d0	-0.00092942733
134	0x3d398b15	0.045298655
135	0x3d274293	0.040834974
136	0x3c1b77a0	0.00948897
137	0x3bc069b7	0.005871977
138	0x3d07ff72	0.033202596
139	0x3d7abfb5	0.061217982
140	0xbd5c25a1	-0.053746823
141	0x3c6ea9f9	0.014566892
142	0xbb5274a3	-0.0032112978
143	0x3c80a58c	0.015703939
144	0x3c146b3e	0.009058772
145	0x3dc5462e	0.09632526
146	0x3d2f84bc	0.042851195
147	0xbd528331	-0.051394645
148	0xbd30bacb	-0.04314689
149	0x3c419998	0.011816405
150	0x3c829635	0.015940765
151	0x3d2a6ca8	0.04160753
152	0x3d376977	0.044778313
153	0x3d3e75b8	0.046498984
154	0x3d469bf4	0.048488572
155	0x3bf94d11	0.007608064
156	0x3da91bb2	0.082572356
157	0xbc665fbf	-0.014060914
158	0xbc872cce	-0.016500857
159	0xbcffe1c5	-0.031235585
160	0x3d1c6b7b	0.03818844
161	0xbd54a1d4	-0.051912144
162	0x3a1d4a3a	0.00060001353
163	0x3d630e58	0.0554336
164	0xbd6f0110	-0.058350623
165	0x3d0a1467	0.033710863
166	0xbbecb368	-0.0072235353
167	0x3cfbda8d	0.030743862
168	0x3d3dcd0c	0.046338126
169	0x3d5a5764	0.053306
170	0x3d806a9c	0.06270334
171	0x3bbe1e27	0.0058019343
172	0xbd4900ad	-0.04907291
173	0x3d3508e6	0.04419794
174	0x3d56fb2d	0.052485634
175	0x3a26de0b	0.00063654844
176	0x3b84b8b0	0.004050337
177	0x3d5c10e1	0.053727034
178	0xbd3e6556	-0.04648336
179	0xbd086404	-0.033298507
180	0xbd4b37a9	-0.04961363
181	0x3c25d431	0.010121391
182	0xbd708dd4	-0.058729008
183	0x3afc7f51	0.0019264017
184	0xbd6fd88b	-0.05855612
185	0x3d3d9809	0.04628757
186	0x3ce541a5	0.027985403
187	0x3ba4a496	0.005024503
188	0x3bf5979f	0.0074948813
189	0xbb58c6c5	-0.003307746
190	0xbb1f22ed	-0.0024282292
191	0x3d861b44	0.06548169
192	0x3d332963	0.04374064
193	0x3d3ea30f	0.046542224
194	0xbd47b45d	-0.048755992
195	0x3d538fef	0.051650938
196	0x3d1e1599	0.038594816
197	0xbb671661	-0.0035261142
198	0x3d1ac7fd	0.03778838
199	0x3c49333d	0.012280283
200	0xbd815ab0	-0.063161254
201	0xbd264737	-0.04059526
202	0xbc875362	-0.016519252
203	0x3cb51c8e	0.022108342
204	0xbcdecc3c	-0.027196996
205	0xbcf99d7f	-0.030470608
206	0x3d440d05	0.04786398
207	0x3d915f85	0.07098297
208	0x3d122d75	0.035687882
209	0xbd860e57	-0.06545704
210	0x3b84bd67	0.004050899
211	0x3d523455	0.05131944
212	0xbcf1c8ac	-0.029514633
213	0xbccc7914	-0.024960078
214	0xbba4489b	-0.005013538
215	0x3c161cd9	0.009162151
216	0x3d814fb5	0.06314031
217	0x3d543a7c	0.051813588
218	0x3d645081	0.055740837
219	0xbcc0e278	-0.023545489
220	0xbd56585e	-0.052330367
221	0x3c5b50da	0.013385976
222	0xbd5447b9	-0.051826213
223	0xbbbef362	-0.0058273533
224	0xbd004cc3	-0.031323206
225	0x3d206beb	0.03916542
226	0x3d565254	0.052324608
227	0x3cc87366	0.024469089
228	0x3d64a9c6	0.05582597
229	0x3d01a61e	0.031652562
230	0xbd965ebd	-0.07342289
231	0x3c4c186f	0.012456997
232	0x3d278aea	0.040903963
233	0x3d813870	0.06309593
234	0xbd8be892	-0.06831469
235	0xbd8db120	-0.069185495
236	0xbc9f481d	-0.019443566
237	0x3d3a3cef	0.045468267
238	0x3c655a32	0.013998555
239	0xbcc9813f	-0.024597762
240	0xbd916b62	-0.0710056
241	0x3cea779a	0.028621484
242	0x3d98931b	0.07449933
243	0xbcb6a01a	-0.02229314
244	0x3dab0152	0.08349861
245	0x3cd47d33	0.025938606
246	0x3d6e9452	0.058246918
247	0x3cac3a6a	0.021023948
248	0x3bd68cf4	0.0065475646
249	0x3d74da07	0.05977824
250	0xbd3252e0	-0.043536067
251	0x3d8eb153	0.06967416
252	0x3d1b6600	0.03793907
253	0x3d291e04	0.04128839
254	0xbd44cd44	-0.04804732
255	0xbd5fec5d	-0.054668773

encoder.3.bias f4 [256]
0	0xbb9eabdd	-0.004842265
1	0x3d4513fc	0.04811476
2	0x3d25566a	0.040365614
3	0x3d86ad46	0.06576018
4	0x3cee1222	0.02906138
5	0xbd5a0baa	-0.05323378
6	0xbd997d1a	-0.07494564
7	0x3d98defc	0.07464406
8	0x3b2450ae	0.0025072503
9	0xbd8ba69a	-0.06818886
10	0x3d82fb71	0.06395615
11	0x3c65f68a	0.01403583
12	0x3d4d5120	0.050126195
13	0x3d777d5a	0.06042228
14	0x3c7399bb	0.014868195
15	0xbbb08c93	-0.0053878515
16	0x3cd76c1d	0.02629667
17	0x3d352b20	0.04423058
18	0xbda16d1a	-0.078821376
19	0x3c35ce51	0.011096553
20	0xbbbc0139	-0.0057374504
21	0x3a569333	0.00081853865
22	0x3c8d15ad	0.01722225
23	0x3cbeb450	0.02327934
24	0xbc6ca790	-0.014444247
25	0x3d4d5739	0.05013201
26	0x3bb561a2	0.0055353204
27	0xbd294559	-0.0413259
28	0xba5e1f67	-0.0008473307
29	0xbc988b87	-0.01862122
30	0x3c769e4b	0.015052388
31	0xbd5fb9b1	-0.05462045
32	0x3cff9aba	0.031201709
33	0x3cee9114	0.029121913
34	0xbd2e79e1	-0.0425967
35	0xbcff97f7	-0.031200392
36	0xbc2ce5f4	-0.010552872
37	0x3af99750	0.0019042287
38	0xbd5a0666	-0.05322876
39	0x3d43c2a1	0.047793034
40	0x3d5f8a46	0.054575227
41	0xbd45dd2f	-0.04830664
42	0x3d081098	0.03321895
43	0xbc34c94e	-0.011034323
44	0xbc403a8f	-0.011732711
45	0x3d740197	0.05957183
46	0xbd500a74	-0.05079122
47	0xbd07a401	-0.03311539
48	0xbc8285b9	-0.015932905
49	0xbd0bf147	-0.034165647
50	0x3c2bc13c	0.010483082
51	0x3d190703	0.037360203
52	0x3d87c27b	0.06628891
53	0x3ae27593	0.0017277471
54	0xbc3dc9a8	-0.011583723
55	0xbd84d90c	-0.06486711
56	0x3d43b69a	0.047781564
57	0x3ccdb3e3	0.02511019
58	0x3d22966e	0.039694242
59	0x3d05a282	0.032625683
60	0x3c4cb7c5	0.012494986
61	0x3aecf4a0	0.0018078275
62	0x3c851902	0.016247276
63	0x3cd2f96d	0.025753701
64	0x3cd000c7	0.025390996
65	0xbcc21b86	-0.023694765
66	0x3d48bdd4	0.04900916
67	0xbd4a1097	-0.049332228
68	0x3c0c4a5a	0.008562649
69	0x3c98f63a	0.018672097
70	0xbc249cf6	-0.010047188
71	0x3d6815ea	0.056661524
72	0x3c943567	0.01809187
73	0xbc9e1ebd	-0.019301767
74	0x3d1d73bb	0.038440447
75	0xbd6c6a21	-0.0577184
76	0x3d65ea8e	0.056131892
77	0xbd27b53f	-0.040944334
78	0xbc8dcfef	-0.017311065
79	0xbc9ec9ca	-0.01938333
80	0xbd25590d	-0.04036813
81	0x3b9c9b13	0.0047792285
82	0x3d39ad8e	0.04533153
83	0xbca53425	-0.020166466
84	0x3d7d9c89	0.06191686
85	0xbcc4feff	-0.024047373
86	0xbd26a6b2	-0.040686317
87	0x3c7da734	0.015481759
88	0x3cb23e3b	0.02175819
89	0xbbaf05ad	-0.005341253
90	0x3d40f5b5	0.047109324
91	0x3cd09f32	0.025466535
92	0x3c64eea7	0.013972915
93	0xba87200d	-0.0010309234
94	0xbd4c6acf	-0.049906548
95	0xbd3e6e83	-0.04649211
96	0xbc26d80c	-0.0101833455
97	0xbc304190	-0.010757819
98	0x3d562ac4	0.05228688
99	0xbd596784	-0.053077236
100	0x3d7588eb	0.05994503
101	0x3c80fadf	0.015744625
102	0x3d28a7d9	0.041175697
103	0xbd0855b5	-0.03328486
104	0x3d4b19e6	0.049585246
105	0x3b85edf3	0.0040872036
106	0xbc51ae66	-0.0127979275
107	0x3c4d0c92	0.012515204
108	0x3d2e7356	0.04259046
109	0x3cb1a69c	0.02168589
110	0x3d600f29	0.054701958
111	0xbd21bd94	-0.039487436
112	0xbd4d915c	-0.050187454
113	0xbd78f6a1	-0.06078208
114	0xbcc5b65e	-0.024134811
115	0xbca463c5	-0.020067105
116	0xbd02d882	-0.03194476
117	0x3d084a57	0.03327402
118	0x3bdff275	0.006834323
119	0xbd916c05	-0.07100681
120	0xbc6ae88f	-0.014337673
121	0x3c600079	0.013671988
122	0xbd413976	-0.04717394
123	0x3d83fc13	0.06444564
124	0x3d3a6c76	0.045513593
125	0x3d8eb040	0.06967211
126	0xbcaa63c6	-0.020799529
127	0x3cddbef7	0.027068598
128	0xbd842c9b	-0.0645382
129	0xbbba8c8d	-0.0056930245
130	0x3d1dbdde	0.03851115
131	0xbc1913b7	-0.009343079
132	0xbd8ce187	-0.068789534
133	0x3ca8ba74	0.02059672
134	0x3aa88931	0.0012858269
135	0x3d7700f5	0.060303647
136	0xbc90c114	-0.017670192
137	0xbcfe9153	-0.031075155
138	0x3d0544d9	0.03253636
139	0xbd4413e3	-0.047870528
140	0xbcfb142f	-0.030649273
141	0xbce37307	-0.02776481
142	0x3d3d15f0	0.0461635
143	0x3d40b07c	0.04704331
144	0xbcb9e88e	-0.022693899
145	0xbd4f8c33	-0.050670814
146	0xbce59f26	-0.02802999
147	0xbd2d06e2	-0.042242892
148	0xbd1c28e2	-0.038124926
149	0x3b548c96	0.0032432429
150	0x3cab74fa	0.020929802
151	0xbc960066	-0.018310737
152	0x3b4cc92a	0.0031247833
153	0x3a446b51	0.0007492798
154	0xbb00ddfb	-0.001966356
155	0x3d01eebb	0.03172181
156	0x3c8a3198	0.016869351
157	0xbcedd556	-0.02903239
158	0x3c44b4d0	0.012006
159	0x3d9b9c57	0.07598179
160	0xbd45ed04	-0.04832174
161	0x3d632bda	0.055461742
162	0x3ca5d587	0.02024342
163	0x3d78af45	0.060714025
164	0x3c634328	0.013870992
165	0xbcf6f5a7	-0.030146433
166	0xbcc8a854	-0.024494328
167	0xb790d4fe	-1.726532e-05
168	0x3d63424f	0.05548316
169	0x3d3bf72c	0.04589002
170	0x3c976a01	0.018483164
171	0x3c8f338b	0.017480632
172	0xbd03b7e5	-0.032157797
173	0x3c4fbf16	0.012679836
174	0xbd589962	-0.052880652
175	0xbd2fe6c3	-0.04294468
176	0xbd123a2b	-0.035700005
177	0x3d84250c	0.06452379
178	0x3c0c080d	0.008546841
179	0x3d620f3c	0.05519031
180	0xbd073d29	-0.03301731
181	0xbd8a511c	-0.06753752
182	0xbd707bd8	-0.058711857
183	0xbc9dd738	-0.019267663
184	0x3bda1383	0.006655158
185	0x3d202225	0.039095063
186	0xbd795615	-0.06087311
187	0x3d020e5c	0.031751975
188	0x3b84891c	0.004044665
189	0xbce64e4f	-0.028113512
190	0x3d685218	0.056718916
191	0xbd37a982	-0.04483939
192	0xbca49ae3	-0.020093387
193	0xbd374f95	-0.04475363
194	0x3d4b2bbb	0.04960225
195	0x3c43ff30	0.011962697
196	0xbd45b0f0	-0.048264444
197	0x3d22dcb2	0.039761253
198	0xbcaf686d	-0.021412099
199	0xbd5acbaf	-0.053416904
200	0xbd617375	-0.05504175
201	0x3cfc08b9	0.030765878
202	0x3d211845	0.039329786
203	0xbcd81af0	-0.026380032
204	0x3c8fd90a	0.017559547
205	0x3d955011	0.07290662
206	0xbd364796	-0.044501863
207	0x3d39491b	0.045235734
208	0x3cf66e0f	0.030081777
209	0x3d0412ac	0.03224437
210	0xbd65646c	-0.056003973
211	0x3c6b3207	0.014355189
212	0x3d12ba5e	0.035822265
213	0xbd5937c9	-0.053031716
214	0x3d36c59e	0.044622056
215	0xbd2990c5	-0.04139783
216	0xbc16538e	-0.009175194
217	0xbba1910d	-0.0049306215
218	0x3d66fff3	0.056396436
219	0x3c9acb3d	0.01889574
220	0xbd72aabd	-0.05924486
221	0xbd243c33	-0.040096473
222	0xbbaa8dad	-0.0052048774
223	0xbc7c8048	-0.015411444
224	0x3d329aa9	0.043604527
225	0x3d212f26	0.039351605
226	0x3d23672a	0.039893307
227	0xbd25c4c7	-0.040470865
228	0xbd8845ad	-0.066539146
229	0xbc80346e	-0.01565
230	0x3d6c6b1d	0.05771934
231	0x3d10b03b	0.035324316
232	0xbd09d9fd	-0.033655155
233	0xbd733a64	-0.059381858
234	0x3c63c385	0.013901596
235	0xbc7abe91	-0.015304224
236	0xbc586a09	-0.0132088745
237	0x3bc998d3	0.0061522513
238	0xbba15b65	-0.004924225
239	0xbd8d2aca	-0.06892927
240	0xbd307aef	-0.04308599
241	0x3d4fda2b	0.05074517
242	0x3cd25376	0.025674563
243	0xbd1cb757	-0.038260784
244	0xbd0c56cd	-0.034262467
245	0x3c0080f3	0.007843244
246	0x3ae72e8d	0.0017637775
247	0x3c82ee87	0.01598288
248	0xbcb95164	-0.022621818
249	0x3cb281fe	0.0217905
250	0x3d2354d4	0.03987582
251	0xbd324e32	-0.043531604
252	0xbb93eb44	-0.00451413
253	0xbd5a914a	-0.053361215
254	0xbd853a0d	-0.06505213
255	0x3b759b6f	0.003747668

policy_head.weight f4 [9, 256]
0	0x3cc50e46	0.024054658
1	0x3c38073c	0.011232194
2	0xbcb9b7e2	-0.02267069
3	0x3d8b8204	0.06811908
4	0xbdfa5be9	-0.12224562
5	0xbe02832b	-0.12745349
6	0xbdc86906	-0.09785657
7	0x3de8c88f	0.113663785
8	0x3cb03b29	0.021512585
9	0xbd6c821b	-0.057741266
10	0x3daa2573	0.08307924
11	0x3d8243ed	0.06360612
12	0x3dbfd3ca	0.093665674
13	0xbc63869c	-0.013887074
14	0x3d2f7516	0.04283627
15	0xbc1faeb8	-0.009746246
16	0xbc9d9a7e	-0.019238707
17	0xbc7ec6f7	-0.015550367
18	0xbd6d1fbe	-0.0578916
19	0x3d675225	0.056474824
20	0x3d099456	0.03358873
21	0xbd889197	-0.06668394
22	0xbdf10c64	-0.117699414
23	0xbc7daa0d	-0.015482438
24	0xbd9d8c93	-0.07692828
25	0xbdd7a965	-0.10530356
26	0xbd93894a	-0.0720392
27	0xbd145eb0	-0.036223114
28	0x3c6cc10a	0.014450321
29	0x3daa2d07	0.083093695
30	0x3ccc610c	0.02494862
31	0x3cb924b1	0.022600504
32	0xbdfff370	-0.12497604
33	0xbdb882aa	-0.09009297
34	0x3ac2d5c2	0.001486473
35	0xbdb869d2	-0.090045586
36	0x3dde518b	0.10855397
37	0x3d5ebe20	0.054380536
38	0xbd6c2e2a	-0.057661213
39	0x3d739adb	0.059473854
40	0x3d70779f	0.05870783
41	0xbd08d562	-0.033406623
42	0x3bfdd10b	0.007745867
43	0xbc0b2df0	-0.008494839
44	0xbd928b9a	-0.07155533
45	0x3d2e91ca	0.042619504
46	0x3c174365	0.009232377
47	0xbd4c05e0	-0.04981029
48	0xbe03ea75	-0.12882407
49	0xbbfbd734	-0.0076855663
50	0x3dad4292	0.08459963
51	0x3ca4d61e	0.02012163
52	0x3d91fa97	0.07127874
53	0x3d73697e	0.059426777
54	0xbc968a52	-0.018376503
55	0xb91960ba	-0.0001462725
56	0x3c6b3eaa	0.014358202
57	0x3dbbee32	0.091762915
58	0x3c2ea76d	0.010660035
59	0xbcc8bb21	-0.024503293
60	0xbd84f98f	-0.06492912
61	0xbcb0c9fb	-0.021580687
62	0x3da131e2	0.078708425
63	0xbca82704	-0.020526417
64	0x3cfc6026	0.030807566
65	0x3da845b6	0.08216421
66	0x3c3334e7	0.010937906
67	0xbd13a6fc	-0.03604792
68	0x3d5c90fe	0.053849213
69	0xbc9ae455	-0.018907705
70	0xbd5c0062	-0.053711303
71	0x3e000fb4	0.1250599
72	0xbdc64d8d	-0.096827604
73	0xbcb55c8e	-0.02213886
74	0x3d7e0c7f	0.062023636
75	0xbdd50cf9	-0.10402865
76	0x3d8abec0	0.06774664
77	0xbd83a605	-0.0642815
78	0x3d9161e1	0.07098747
79	0xbdc37c17	-0.09545153
80	0xbdd636b9	-0.10459656
81	0xbd33275e	-0.043738715
82	0xbd34cbaa	-0.04413954
83	0xbcada8ca	-0.021198649
84	0x3d601e76	0.05471655
85	0x3daf4b6d	0.08559308
86	0x3d5707b6	0.052497588
87	0xbcf6077b	-0.030032864
88	0x3dad8a72	0.08473672
89	0xbd40c74e	-0.04706507
90	0x3db7d5fd	0.08976362
91	0xbd726e92	-0.05918748
92	0xbd8b0c98	-0.067895114
93	0xbdf00231	-0.11719168
94	0xbdc6f3df	-0.097144835
95	0x3c7ae700	0.015313864
96	0xbd086433	-0.033298682
97	0x3cbf469e	0.023349103
98	0x3dc42f4f	0.09579336
99	0xbccb5671	-0.024821492
100	0x3ce98939	0.028507816
101	0x3d6f3ffc	0.05841063
102	0xbcfa1cd1	-0.030531319
103	0xbd60b5da	-0.054860927
104	0xbd5df236	-0.05418607
105	0xbd2db9af	-0.04241341
106	0xbd004e2d	-0.031324554
107	0x3dc52365	0.096258916
108	0x3d0985c3	0.03357483
109	0x3dae1155	0.084993996
110	0xbd0f71b2	-0.035020538
111	0x3debc59d	0.11512301
112	0xbc70d56a	-0.014699319
113	0x3d0e4e44	0.03474261
114	0xbc32783f	-0.010892927
115	0x3b6983a1	0.0035631435
116	0xbcf898d8	-0.03034632
117	0x3d8b7607	0.06809621
118	0xbd5f0ec3	-0.054457437
119	0xbda173a7	-0.07883387
120	0x3d730da5	0.059339184
121	0xbda40bfb	-0.080100976
122	0x3dc7757a	0.09739204
123	0xbd5a6c36	-0.053325854
124	0x3d4dc31e	0.050234906
125	0x3db7b3c6	0.08969836
126	0xbd842f0e	-0.064542875
127	0x3c0c4850	0.0085621625
128	0xbd602746	-0.054724954
129	0x3dfe4e00	0.12417221
130	0x3d5e2037	0.05422994
131	0xbca474f3	-0.020075297
132	0xbd805331	-0.062658675
133	0x3dc9a7d6	0.09846465
134	0x3de94845	0.113907374
135	0x3d658722	0.056037076
136	0x3d80576e	0.06266676
137	0xbdf294b0	-0.11844766
138	0x3d162514	0.036656454
139	0xbd86f998	-0.06590575
140	0xbc180ae4	-0.00927994
141	0x3d4a1338	0.049334735
142	0x3db5a4cb	0.088693224
143	0xbc0a71d8	-0.008449994
144	0x3da1d613	0.079021595
145	0x3c0ab362	0.00846562
146	0xbd8b9476	-0.06815426
147	0x3d55daa1	0.052210454
148	0x3d26b4f0	0.0406999
149	0xbd8c1f88	-0.068419516
150	0xbd3a1802	-0.045433052
151	0xbaf99c2d	-0.0019043736
152	0xbd033246	-0.032030366
153	0xbdf1759c	-0.1179001
154	0xbd7b2e65	-0.061323542
155	0x3cfcbf68	0.030852988
156	0xbdb0abdd	-0.0862653
157	0xbbf10cd9	-0.007356268
158	0xbd3d0a1a	-0.04615221
159	0xbcbf2ac2	-0.023335818
160	0x3cff3953	0.031155264
161	0x3db87d79	0.09008307
162	0x3cbb2858	0.022846386
163	0x3c38d13b	0.011280353
164	0x3d1e0504	0.038579002
165	0xbd149ff6	-0.036285363
166	0xbd296fd8	-0.041366428
167	0x3d91a312	0.07111181
168	0x3c1a81b0	0.009430334
169	0xbcc6cd95	-0.024267951
170	0xbd957da2	-0.07299353
171	0xbd8e8dd0	-0.06960642
172	0x3d2a1cbe	0.041531317
173	0x3d93096a	0.0717953
174	0x3cfad9ee	0.030621495
175	0x3dd00ae9	0.10158331
176	0x3da97f81	0.082762726
177	0x3d1d58fa	0.038414933
178	0x3df244e8	0.11829549
179	0x3d61adc4	0.055097356
180	0xbda3ee88	-0.080044806
181	0x3d1cbfae	0.038268737
182	0xbc75a193	-0.014992136
183	0x3c123247	0.00892312
184	0x3d61a965	0.055093188
185	0xbd629dc7	-0.05532625
186	0xbd39b076	-0.045334302
187	0xbd9a41a0	-0.07532048
188	0x3d042728	0.032263905
189	0xbd950570	-0.07276428
190	0x3d0d680a	0.034523048
191	0xbbc871e5	-0.006117093
192	0xbd8b7c69	-0.06810839
193	0x3d8f0fd6	0.06985442
194	0x3e0b9313	0.13630323
195	0x3da8eca1	0.082482584
196	0xbd1bab54	-0.038005188
197	0x3dbfb187	0.093600325
198	0x3c0c613b	0.008568103
199	0xbd7ca9bf	-0.06168532
200	0xbd6d941f	-0.058002587
201	0xbd014274	-0.031557515
202	0x3d79b838	0.0609667
203	0xbd1411c8	-0.03614977
204	0x39f607ec	0.0004692668
205	0x3d59d771	0.053183977
206	0xbc2117e8	-0.00983236
207	0xbd73f026	-0.059555195
208	0x3cb6034f	0.022218375
209	0x3ddbd728	0.10734397
210	0xbd9d2e6f	-0.07674872
211	0xbdd62447	-0.10456138
212	0xbd91f8f2	-0.07127561
213	0xbd0cea1a	-0.034402944
214	0x3c8fa691	0.01753548
215	0x3d08a7d1	0.033363167
216	0x3cbc8f73	0.02301762
217	0xbdbb80a0	-0.09155393
218	0x3d1830f7	0.03715607
219	0x3da50352	0.08057274
220	0xbd1aaf24	-0.037764683
221	0x3cb6d602	0.022318844
222	0x3d0f068b	0.03491835
223	0x3cc2490a	0.023716468
224	0x3ca03e77	0.019561036
225	0x3d6de029	0.058075104
226	0x3da7f85b	0.08201667
227	0x3d370caf	0.04468983
228	0xbdac1727	-0.084028535
229	0xbc35b090	-0.011089459
230	0x3c14f808	0.009092338
231	0xbdb73ddf	-0.08947348
232	0xbde35f3c	-0.11102149
233	0xbd845d6c	-0.06463131
234	0x3d612623	0.05496801
235	0x3d68f396	0.056872927
236	0xba76ad7d	-0.0009410007
237	0x3ddcd7fc	0.10783383
238	0xbd3a6803	-0.04550935
239	0xba54204a	-0.00080919696
240	0x3dcb4c70	0.09926689
241	0x3d7cf34b	0.06175546
242	0xbc5a4030	-0.013320968
243	0xbca622dc	-0.020280294
244	0xbc92b67b	-0.01790928
245	0xbdabae82	-0.08382894
246	0xbcfce013	-0.030868566
247	0xbdb8c875	-0.09022609
248	0x3d932da9	0.07186443
249	0x3c0a9e63	0.008460614
250	0xbcaec470	-0.021333903
251	0x3d275c14	0.040859297
252	0x3d952baa	0.07283719
253	0x3cc4d6be	0.024028178
254	0xbd9f84fa	-0.07789035
255	0x3ce165ab	0.0275143

policy_head.bias f4 [9]
0	0x3d9995f9	0.07499308
1	0x3d783b6b	0.06060354
2	0x3aa7fb10	0.0012815911
3	0xbd6fe646	-0.058569215
4	0xbc885fcd	-0.016647244
5	0xbc2dbcf4	-0.010604132
6	0x3d32f27f	0.043688294
7	0xbc90817a	-0.017639864
8	0xbc83af99	-0.016074942

value_head.weight f4 [1, 256]
0	0x3cd20f46	0.025642049
1	0x3d6b4ad2	0.0574444
2	0xbc66ab72	-0.014078962
3	0x3d72b49a	0.059254266
4	0xbabb81fa	-0.0014305704
5	0x3d1ff3ec	0.03905098
6	0xbc93b8ef	-0.01803252
7	0x376cd47f	1.4116172e-05
8	0x3d888dbf	0.06667661
9	0xbd1fd2fb	-0.039019566
10	0x3d5858c1	0.052819017
11	0xbabf5a08	-0.0014598975
12	0xbc8c7be8	-0.017148927
13	0x3d2317fd	0.0398178
14	0xbc6cd2a8	-0.014454521
15	0xbd7a353f	-0.061085936
16	0xbc5eb16c	-0.013592105
17	0x3d348769	0.04407445
18	0xbb9b3609	-0.004736666
19	0xbc2a4515	-0.010392447
20	0x3c479f41	0.012183965
21	0xbc67f24b	-0.014156888
22	0xbc527794	-0.012845892
23	0xbb2dc650	-0.0026515909
24	0x3d40fe57	0.047117557
25	0x3d2ee198	0.04269561
26	0xba649ded	-0.00087210425
27	0xbb74d173	-0.0037356287
28	0x3d6eec49	0.058330808
29	0xbcba475c	-0.022739105
30	0x3ce0601b	0.027389577
31	0xbd530f58	-0.051528305
32	0xbcdb6229	-0.026780205
33	0x3d4b8b00	0.049693108
34	0xbcec912a	-0.028877813
35	0xbb8bcd58	-0.0042664222
36	0x3ce0fd70	0.027464598
37	0x3ce63119	0.028099583
38	0x3baf3366	0.0053467033
39	0x3cbde9ea	0.023182828
40	0xbd18b618	-0.037283033
41	0xbc9e291b	-0.01930671
42	0xbbb0a300	-0.005390525
43	0x3bc4b46d	0.0060029537
44	0xbc48fa42	-0.012266697
45	0xbc7ae329	-0.015312948
46	0xbcd7aead	-0.02632841
47	0xbaeeec4f	-0.0018228384
48	0x3d09e2f1	0.033663694
49	0x3a872f87	0.0010313847
50	0x3d262dc3	0.040570986
51	0x3b556907	0.0032563822
52	0xbc9909ec	-0.018681489
53	0x3d5d56cd	0.054037858
54	0x3d53728a	0.051622905
55	0xbce68084	-0.028137453
56	0xbd4033bb	-0.046924334
57	0x3d2a4aa3	0.041575085
58	0xbcbd8aea	-0.023137528
59	0xbd7e52cf	-0.06209069
60	0xbc298304	-0.010346178
61	0x3ba3816f	0.004989795
62	0x3cc0689d	0.023487383
63	0x3ce66657	0.028124971
64	0xbd53dd13	-0.051724505
65	0x3d3df646	0.046377443
66	0x3d375697	0.044760313
67	0xbcad7209	-0.02117254
68	0x3cfee6fb	0.031116
69	0xbce64b4a	-0.028112072
70	0x3d12ce39	0.0358412
71	0x3b0c384c	0.002139586
72	0x3d12ad82	0.03581
73	0x3c257014	0.010097522
74	0x3c89c8df	0.016819416
75	0xbd73d284	-0.059526935
76	0x3c81274f	0.015765814
77	0xbd4f825d	-0.050661433
78	0xbd0b718d	-0.034043837
79	0xbcfe2dec	-0.031027757
80	0x3cd137e6	0.02553935
81	0xbd328cbe	-0.043591253
82	0xbcd3f2eb	-0.025872668
83	0xbd37204c	-0.044708535
84	0x3d3a882f	0.04554003
85	0x3d29f30e	0.04149156
86	0xbaa7bc44	-0.0012797196
87	0x3d50f17b	0.051011544
88	0x3c8bb65f	0.017054735
89	0xbc399dce	-0.0113291275
90	0x3d36a7d5	0.04459365
91	0x3d6dc518	0.05804929
92	0xbd4ec169	-0.05047742
93	0x3c7924f2	0.015206562
94	0xbd197454	-0.037464455
95	0xbd1a2667	-0.03763428
96	0x3cca01fc	0.02465915
97	0xbb5d9364	-0.0033809775
98	0x3d17dc5a	0.037075378
99	0xbd0b1c75	-0.033962686
100	0x3d3648d6	0.044503056
101	0x3cf0981f	0.029369412
102	0xbcb3b08e	-0.021934774
103	0xbd5fbd20	-0.054623723
104	0xbc6e0a78	-0.014528863
105	0xbcacf1b8	-0.021111354
106	0xbb241453	-0.0025036528
107	0x3cbaedf5	0.022818545
108	0xbd642e35	-0.05570813
109	0x3d62f0d6	0.05540546
110	0x3c0d9430	0.008641288
111	0xbd02cea3	-0.031935345
112	0xbd142f78	-0.036178082
113	0xbd2b6198	-0.04184112
114	0x3d295cf6	0.04134842
115	0x3c0c2f56	0.008556208
116	0xbbca71f0	-0.006178133
117	0x3beee3be	0.0072903326
118	0x3ce40e43	0.027838832
119	0xbc0b28bd	-0.0084935995
120	0xbd2689ea	-0.04065887
121	0xbc94074c	-0.018069886
122	0x3d60fcb3	0.054928493
123	0x3d87d7c9	0.066329546
124	0xbbd94140	-0.006630093
125	0x3c865749	0.016399043
126	0xbd83226e	-0.06403051
127	0x3d2d9ecc	0.04238777
128	0xbd193db3	-0.037412357
129	0xbc32ad76	-0.010905614
130	0x3cb29de5	0.021803806
131	0xbd85f6a1	-0.06541181
132	0x3be6ab22	0.0070394436
133	0xbc51c113	-0.01280238
134	0xbb6492f9	-0.0034877642
135	0x3d11a324	0.035555974
136	0xbd3f1170	-0.04664749
137	0xbd3cbfd7	-0.04608139
138	0x3d11e894	0.035622194
139	0x3cf8d287	0.030373825
140	0x3cbd1cbf	0.023084996
141	0xbb786033	-0.0037899136
142	0x3d52dff9	0.05148313
143	0xbd457ac9	-0.0482128
144	0x3bba4dbd	0.0056855367
145	0xbccaed4c	-0.024771355
146	0x3cd26c6e	0.025686469
147	0xbcf51ff4	-0.029922463
148	0x3c44417d	0.011978504
149	0xbacacb5a	-0.001547198
150	0x3bacfc3c	0.005279092
151	0xbcaa04db	-0.020754268
152	0xbd579e58	-0.052641243
153	0x3d129c2b	0.035793465
154	0x3ca0d572	0.019633029
155	0x3ccd99d4	0.025097765
156	0xbbda0c85	-0.0066543245
157	0x3d22f620	0.039785504
158	0x3d8b1971	0.06791962
159	0x3d1dd9b5	0.0385377
160	0xbccb61c2	-0.024826888
161	0xbc79b030	-0.01523976
162	0xbcb35772	-0.021892283
163	0x3d3ec97c	0.04657887
164	0xbac78a5e	-0.0015223732
165	0x3d6e4cc3	0.058178674
166	0xbccd2cec	-0.025045834
167	0x3ceb7a91	0.028744968
168	0x3d0ac9c1	0.033883814
169	0x3d332f5a	0.04374633
170	0xbd8c4ece	-0.06850968
171	0x3d5cbf5e	0.05389344
172	0x39f728c7	0.00047141893
173	0x3d2a3081	0.041550163
174	0xbcad8f90	-0.02118662
175	0x3b9ef35e	0.004850789
176	0xbcf33da1	-0.029692473
177	0x3cb65d56	0.022261303
178	0x3d2db25e	0.042406432
179	0x3bb02ac4	0.005376192
180	0xbd81a160	-0.06329608
181	0xbc7a67f9	-0.015283578
182	0xbcc9d583	-0.024637943
183	0xbc3dce82	-0.01158488
184	0xbd454b1f	-0.048167344
185	0xbd2758d8	-0.040856212
186	0x3cadde5c	0.021224193
187	0xbd7e6e1c	-0.062116727
188	0xbd8ac632	-0.06776084
189	0x3d885232	0.066563025
190	0x3c9ed910	0.019390613
191	0xbca24296	-0.019807141
192	0xbcd302e6	-0.025758218
193	0xbd5f2acf	-0.054484185
194	0xbb3fd6d8	-0.0029272344
195	0x3d286539	0.04111216
196	0x3cc8362b	0.024439892
197	0xbce5ef81	-0.028068306
198	0x3d567b2d	0.052363563
199	0xbcc5dabe	-0.024152156
200	0x3d0616a0	0.03273642
201	0xbd385e4d	-0.045011807
202	0xbd1c5401	-0.03816605
203	0xbd28f21b	-0.041246515
204	0x3c8512e4	0.01624436
205	0x3c829b57	0.015943212
206	0x3d6fb379	0.058520768
207	0x3986b40d	0.0002569262
208	0x3d171b9c	0.036891565
209	0x3b6f3a37	0.0036503205
210	0xbd5401be	-0.051759474
211	0x3ccb421c	0.024811797
212	0xbd21fa7c	-0.03954552
213	0x3d12855c	0.035771713
214	0xbd1be221	-0.03805745
215	0xbd2713bd	-0.04079031
216	0x3cfa04c3	0.030519849
217	0x3d750e24	0.05982794
218	0x3a25d9c5	0.00063267007
219	0x3d55989e	0.0521475
220	0xbd4d1eab	-0.050078075
221	0xbd774340	-0.06036687
222	0x3c49e18f	0.012321844
223	0x3d190e22	0.037366994
224	0xbd1a818c	-0.0377212
225	0xbca3fa2c	-0.020016752
226	0xbd89a2c0	-0.06720495
227	0x3d5bdf6d	0.053679872
228	0xbd33349e	-0.04375135
229	0x3d28d492	0.041218348
230	0x3d698859	0.057014797
231	0xbc08021a	-0.008301282
232	0x3d486db8	0.04893276
233	0xbcb195c8	-0.021677867
234	0xbc8af982	-0.016964678
235	0xbd01ecf8	-0.03172013
236	0x3c6decd1	0.014521793
237	0x3cb299d5	0.021801868
238	0xbd8935a4	-0.06699684
239	0x3c6a08fe	0.0142843705
240	0xbd52e1d8	-0.051484913
241	0x3d66284c	0.056190774
242	0x3c9fc8e8	0.01950498
243	0x3d165df9	0.036710713
244	0xbd7e8b5e	-0.06214463
245	0x3cd6cddd	0.02622121
246	0xbb8e3790	-0.0043401197
247	0xbd26c5dc	-0.040716037
248	0xbcaa9908	-0.020824924
249	0xbcbe4df2	-0.023230527
250	0xbd29d9ac	-0.041467354
251	0xbcb9d5b1	-0.022684904
252	0x3c22894f	0.009920432
253	0xbd1bf367	-0.038073923
254	0xbc963083	-0.018333679
255	0x3d7ef1ed	0.062242437
